…
2019-11-06 11:09:37.088126: I tensorflow/core/common_runtime/gpu/gpu_device.cc:1304] Created TensorFlow device (/device:GPU:3 with 10470 MB memory) -> physical GPU (device: 3, name: GeForce GTX 1080 Ti, pci bus id: 0000:83:00.0, compute capability: 6.1)
Model: ""densenet121""
__________________________________________________________________________________________________
Layer (type)                    Output Shape         Param #     Connected to
==================================================================================================
input_1 (InputLayer)            [(3, 372, 558, 3)]   0
__________________________________________________________________________________________________
zero_padding2d (ZeroPadding2D)  (3, 378, 564, 3)     0           input_1[0][0]
__________________________________________________________________________________________________
conv1/conv (Conv2D)             (3, 186, 279, 64)    9408        zero_padding2d[0][0]
__________________________________________________________________________________________________
conv1/bn (BatchNormalization)   (3, 186, 279, 64)    256         conv1/conv[0][0]
__________________________________________________________________________________________________
conv1/relu (Activation)         (3, 186, 279, 64)    0           conv1/bn[0][0]
__________________________________________________________________________________________________
zero_padding2d_1 (ZeroPadding2D (3, 188, 281, 64)    0           conv1/relu[0][0]
__________________________________________________________________________________________________
pool1 (MaxPooling2D)            (3, 93, 140, 64)     0           zero_padding2d_1[0][0]
__________________________________________________________________________________________________
conv2_block1_0_bn (BatchNormali (3, 93, 140, 64)     256         pool1[0][0]
__________________________________________________________________________________________________
conv2_block1_0_relu (Activation (3, 93, 140, 64)     0           conv2_block1_0_bn[0][0]
__________________________________________________________________________________________________
conv2_block1_1_conv (Conv2D)    (3, 93, 140, 128)    8192        conv2_block1_0_relu[0][0]
__________________________________________________________________________________________________
conv2_block1_1_bn (BatchNormali (3, 93, 140, 128)    512         conv2_block1_1_conv[0][0]
__________________________________________________________________________________________________
conv2_block1_1_relu (Activation (3, 93, 140, 128)    0           conv2_block1_1_bn[0][0]
__________________________________________________________________________________________________
conv2_block1_2_conv (Conv2D)    (3, 93, 140, 32)     36864       conv2_block1_1_relu[0][0]
__________________________________________________________________________________________________
conv2_block1_concat (Concatenat (3, 93, 140, 96)     0           pool1[0][0]
                                                                 conv2_block1_2_conv[0][0]
__________________________________________________________________________________________________
conv2_block2_0_bn (BatchNormali (3, 93, 140, 96)     384         conv2_block1_concat[0][0]
__________________________________________________________________________________________________
conv2_block2_0_relu (Activation (3, 93, 140, 96)     0           conv2_block2_0_bn[0][0]
__________________________________________________________________________________________________
conv2_block2_1_conv (Conv2D)    (3, 93, 140, 128)    12288       conv2_block2_0_relu[0][0]
__________________________________________________________________________________________________
conv2_block2_1_bn (BatchNormali (3, 93, 140, 128)    512         conv2_block2_1_conv[0][0]
__________________________________________________________________________________________________
conv2_block2_1_relu (Activation (3, 93, 140, 128)    0           conv2_block2_1_bn[0][0]
__________________________________________________________________________________________________
conv2_block2_2_conv (Conv2D)    (3, 93, 140, 32)     36864       conv2_block2_1_relu[0][0]
__________________________________________________________________________________________________
conv2_block2_concat (Concatenat (3, 93, 140, 128)    0           conv2_block1_concat[0][0]
                                                                 conv2_block2_2_conv[0][0]
__________________________________________________________________________________________________
conv2_block3_0_bn (BatchNormali (3, 93, 140, 128)    512         conv2_block2_concat[0][0]
__________________________________________________________________________________________________
conv2_block3_0_relu (Activation (3, 93, 140, 128)    0           conv2_block3_0_bn[0][0]
__________________________________________________________________________________________________
conv2_block3_1_conv (Conv2D)    (3, 93, 140, 128)    16384       conv2_block3_0_relu[0][0]
__________________________________________________________________________________________________
conv2_block3_1_bn (BatchNormali (3, 93, 140, 128)    512         conv2_block3_1_conv[0][0]
__________________________________________________________________________________________________
conv2_block3_1_relu (Activation (3, 93, 140, 128)    0           conv2_block3_1_bn[0][0]
__________________________________________________________________________________________________
conv2_block3_2_conv (Conv2D)    (3, 93, 140, 32)     36864       conv2_block3_1_relu[0][0]
__________________________________________________________________________________________________
conv2_block3_concat (Concatenat (3, 93, 140, 160)    0           conv2_block2_concat[0][0]
                                                                 conv2_block3_2_conv[0][0]
__________________________________________________________________________________________________
conv2_block4_0_bn (BatchNormali (3, 93, 140, 160)    640         conv2_block3_concat[0][0]
__________________________________________________________________________________________________
conv2_block4_0_relu (Activation (3, 93, 140, 160)    0           conv2_block4_0_bn[0][0]
__________________________________________________________________________________________________
conv2_block4_1_conv (Conv2D)    (3, 93, 140, 128)    20480       conv2_block4_0_relu[0][0]
__________________________________________________________________________________________________
conv2_block4_1_bn (BatchNormali (3, 93, 140, 128)    512         conv2_block4_1_conv[0][0]
__________________________________________________________________________________________________
conv2_block4_1_relu (Activation (3, 93, 140, 128)    0           conv2_block4_1_bn[0][0]
__________________________________________________________________________________________________
conv2_block4_2_conv (Conv2D)    (3, 93, 140, 32)     36864       conv2_block4_1_relu[0][0]
__________________________________________________________________________________________________
conv2_block4_concat (Concatenat (3, 93, 140, 192)    0           conv2_block3_concat[0][0]
                                                                 conv2_block4_2_conv[0][0]
__________________________________________________________________________________________________
conv2_block5_0_bn (BatchNormali (3, 93, 140, 192)    768         conv2_block4_concat[0][0]
__________________________________________________________________________________________________
conv2_block5_0_relu (Activation (3, 93, 140, 192)    0           conv2_block5_0_bn[0][0]
__________________________________________________________________________________________________
conv2_block5_1_conv (Conv2D)    (3, 93, 140, 128)    24576       conv2_block5_0_relu[0][0]
__________________________________________________________________________________________________
conv2_block5_1_bn (BatchNormali (3, 93, 140, 128)    512         conv2_block5_1_conv[0][0]
__________________________________________________________________________________________________
conv2_block5_1_relu (Activation (3, 93, 140, 128)    0           conv2_block5_1_bn[0][0]
__________________________________________________________________________________________________
conv2_block5_2_conv (Conv2D)    (3, 93, 140, 32)     36864       conv2_block5_1_relu[0][0]
__________________________________________________________________________________________________
conv2_block5_concat (Concatenat (3, 93, 140, 224)    0           conv2_block4_concat[0][0]
                                                                 conv2_block5_2_conv[0][0]
__________________________________________________________________________________________________
conv2_block6_0_bn (BatchNormali (3, 93, 140, 224)    896         conv2_block5_concat[0][0]
__________________________________________________________________________________________________
conv2_block6_0_relu (Activation (3, 93, 140, 224)    0           conv2_block6_0_bn[0][0]
__________________________________________________________________________________________________
conv2_block6_1_conv (Conv2D)    (3, 93, 140, 128)    28672       conv2_block6_0_relu[0][0]
__________________________________________________________________________________________________
conv2_block6_1_bn (BatchNormali (3, 93, 140, 128)    512         conv2_block6_1_conv[0][0]
__________________________________________________________________________________________________
conv2_block6_1_relu (Activation (3, 93, 140, 128)    0           conv2_block6_1_bn[0][0]
__________________________________________________________________________________________________
conv2_block6_2_conv (Conv2D)    (3, 93, 140, 32)     36864       conv2_block6_1_relu[0][0]
__________________________________________________________________________________________________
conv2_block6_concat (Concatenat (3, 93, 140, 256)    0           conv2_block5_concat[0][0]
                                                                 conv2_block6_2_conv[0][0]
__________________________________________________________________________________________________
pool2_bn (BatchNormalization)   (3, 93, 140, 256)    1024        conv2_block6_concat[0][0]
__________________________________________________________________________________________________
pool2_relu (Activation)         (3, 93, 140, 256)    0           pool2_bn[0][0]
__________________________________________________________________________________________________
pool2_conv (Conv2D)             (3, 93, 140, 128)    32768       pool2_relu[0][0]
__________________________________________________________________________________________________
pool2_pool (AveragePooling2D)   (3, 46, 70, 128)     0           pool2_conv[0][0]
__________________________________________________________________________________________________
conv3_block1_0_bn (BatchNormali (3, 46, 70, 128)     512         pool2_pool[0][0]
__________________________________________________________________________________________________
conv3_block1_0_relu (Activation (3, 46, 70, 128)     0           conv3_block1_0_bn[0][0]
__________________________________________________________________________________________________
conv3_block1_1_conv (Conv2D)    (3, 46, 70, 128)     16384       conv3_block1_0_relu[0][0]
__________________________________________________________________________________________________
conv3_block1_1_bn (BatchNormali (3, 46, 70, 128)     512         conv3_block1_1_conv[0][0]
__________________________________________________________________________________________________
conv3_block1_1_relu (Activation (3, 46, 70, 128)     0           conv3_block1_1_bn[0][0]
__________________________________________________________________________________________________
conv3_block1_2_conv (Conv2D)    (3, 46, 70, 32)      36864       conv3_block1_1_relu[0][0]
__________________________________________________________________________________________________
conv3_block1_concat (Concatenat (3, 46, 70, 160)     0           pool2_pool[0][0]
                                                                 conv3_block1_2_conv[0][0]
__________________________________________________________________________________________________
conv3_block2_0_bn (BatchNormali (3, 46, 70, 160)     640         conv3_block1_concat[0][0]
__________________________________________________________________________________________________
conv3_block2_0_relu (Activation (3, 46, 70, 160)     0           conv3_block2_0_bn[0][0]
__________________________________________________________________________________________________
conv3_block2_1_conv (Conv2D)    (3, 46, 70, 128)     20480       conv3_block2_0_relu[0][0]
__________________________________________________________________________________________________
conv3_block2_1_bn (BatchNormali (3, 46, 70, 128)     512         conv3_block2_1_conv[0][0]
__________________________________________________________________________________________________
conv3_block2_1_relu (Activation (3, 46, 70, 128)     0           conv3_block2_1_bn[0][0]
__________________________________________________________________________________________________
conv3_block2_2_conv (Conv2D)    (3, 46, 70, 32)      36864       conv3_block2_1_relu[0][0]
__________________________________________________________________________________________________
conv3_block2_concat (Concatenat (3, 46, 70, 192)     0           conv3_block1_concat[0][0]
                                                                 conv3_block2_2_conv[0][0]
__________________________________________________________________________________________________
conv3_block3_0_bn (BatchNormali (3, 46, 70, 192)     768         conv3_block2_concat[0][0]
__________________________________________________________________________________________________
conv3_block3_0_relu (Activation (3, 46, 70, 192)     0           conv3_block3_0_bn[0][0]
__________________________________________________________________________________________________
conv3_block3_1_conv (Conv2D)    (3, 46, 70, 128)     24576       conv3_block3_0_relu[0][0]
__________________________________________________________________________________________________
conv3_block3_1_bn (BatchNormali (3, 46, 70, 128)     512         conv3_block3_1_conv[0][0]
__________________________________________________________________________________________________
conv3_block3_1_relu (Activation (3, 46, 70, 128)     0           conv3_block3_1_bn[0][0]
__________________________________________________________________________________________________
conv3_block3_2_conv (Conv2D)    (3, 46, 70, 32)      36864       conv3_block3_1_relu[0][0]
__________________________________________________________________________________________________
conv3_block3_concat (Concatenat (3, 46, 70, 224)     0           conv3_block2_concat[0][0]
                                                                 conv3_block3_2_conv[0][0]
__________________________________________________________________________________________________
conv3_block4_0_bn (BatchNormali (3, 46, 70, 224)     896         conv3_block3_concat[0][0]
__________________________________________________________________________________________________
conv3_block4_0_relu (Activation (3, 46, 70, 224)     0           conv3_block4_0_bn[0][0]
__________________________________________________________________________________________________
conv3_block4_1_conv (Conv2D)    (3, 46, 70, 128)     28672       conv3_block4_0_relu[0][0]
__________________________________________________________________________________________________
conv3_block4_1_bn (BatchNormali (3, 46, 70, 128)     512         conv3_block4_1_conv[0][0]
__________________________________________________________________________________________________
conv3_block4_1_relu (Activation (3, 46, 70, 128)     0           conv3_block4_1_bn[0][0]
__________________________________________________________________________________________________
conv3_block4_2_conv (Conv2D)    (3, 46, 70, 32)      36864       conv3_block4_1_relu[0][0]
__________________________________________________________________________________________________
conv3_block4_concat (Concatenat (3, 46, 70, 256)     0           conv3_block3_concat[0][0]
                                                                 conv3_block4_2_conv[0][0]
__________________________________________________________________________________________________
conv3_block5_0_bn (BatchNormali (3, 46, 70, 256)     1024        conv3_block4_concat[0][0]
__________________________________________________________________________________________________
conv3_block5_0_relu (Activation (3, 46, 70, 256)     0           conv3_block5_0_bn[0][0]
__________________________________________________________________________________________________
conv3_block5_1_conv (Conv2D)    (3, 46, 70, 128)     32768       conv3_block5_0_relu[0][0]
__________________________________________________________________________________________________
conv3_block5_1_bn (BatchNormali (3, 46, 70, 128)     512         conv3_block5_1_conv[0][0]
__________________________________________________________________________________________________
conv3_block5_1_relu (Activation (3, 46, 70, 128)     0           conv3_block5_1_bn[0][0]
__________________________________________________________________________________________________
conv3_block5_2_conv (Conv2D)    (3, 46, 70, 32)      36864       conv3_block5_1_relu[0][0]
__________________________________________________________________________________________________
conv3_block5_concat (Concatenat (3, 46, 70, 288)     0           conv3_block4_concat[0][0]
                                                                 conv3_block5_2_conv[0][0]
__________________________________________________________________________________________________
conv3_block6_0_bn (BatchNormali (3, 46, 70, 288)     1152        conv3_block5_concat[0][0]
__________________________________________________________________________________________________
conv3_block6_0_relu (Activation (3, 46, 70, 288)     0           conv3_block6_0_bn[0][0]
__________________________________________________________________________________________________
conv3_block6_1_conv (Conv2D)    (3, 46, 70, 128)     36864       conv3_block6_0_relu[0][0]
__________________________________________________________________________________________________
conv3_block6_1_bn (BatchNormali (3, 46, 70, 128)     512         conv3_block6_1_conv[0][0]
__________________________________________________________________________________________________
conv3_block6_1_relu (Activation (3, 46, 70, 128)     0           conv3_block6_1_bn[0][0]
__________________________________________________________________________________________________
conv3_block6_2_conv (Conv2D)    (3, 46, 70, 32)      36864       conv3_block6_1_relu[0][0]
__________________________________________________________________________________________________
conv3_block6_concat (Concatenat (3, 46, 70, 320)     0           conv3_block5_concat[0][0]
                                                                 conv3_block6_2_conv[0][0]
__________________________________________________________________________________________________
conv3_block7_0_bn (BatchNormali (3, 46, 70, 320)     1280        conv3_block6_concat[0][0]
__________________________________________________________________________________________________
conv3_block7_0_relu (Activation (3, 46, 70, 320)     0           conv3_block7_0_bn[0][0]
__________________________________________________________________________________________________
conv3_block7_1_conv (Conv2D)    (3, 46, 70, 128)     40960       conv3_block7_0_relu[0][0]
__________________________________________________________________________________________________
conv3_block7_1_bn (BatchNormali (3, 46, 70, 128)     512         conv3_block7_1_conv[0][0]
__________________________________________________________________________________________________
conv3_block7_1_relu (Activation (3, 46, 70, 128)     0           conv3_block7_1_bn[0][0]
__________________________________________________________________________________________________
conv3_block7_2_conv (Conv2D)    (3, 46, 70, 32)      36864       conv3_block7_1_relu[0][0]
__________________________________________________________________________________________________
conv3_block7_concat (Concatenat (3, 46, 70, 352)     0           conv3_block6_concat[0][0]
                                                                 conv3_block7_2_conv[0][0]
__________________________________________________________________________________________________
conv3_block8_0_bn (BatchNormali (3, 46, 70, 352)     1408        conv3_block7_concat[0][0]
__________________________________________________________________________________________________
conv3_block8_0_relu (Activation (3, 46, 70, 352)     0           conv3_block8_0_bn[0][0]
__________________________________________________________________________________________________
conv3_block8_1_conv (Conv2D)    (3, 46, 70, 128)     45056       conv3_block8_0_relu[0][0]
__________________________________________________________________________________________________
conv3_block8_1_bn (BatchNormali (3, 46, 70, 128)     512         conv3_block8_1_conv[0][0]
__________________________________________________________________________________________________
conv3_block8_1_relu (Activation (3, 46, 70, 128)     0           conv3_block8_1_bn[0][0]
__________________________________________________________________________________________________
conv3_block8_2_conv (Conv2D)    (3, 46, 70, 32)      36864       conv3_block8_1_relu[0][0]
__________________________________________________________________________________________________
conv3_block8_concat (Concatenat (3, 46, 70, 384)     0           conv3_block7_concat[0][0]
                                                                 conv3_block8_2_conv[0][0]
__________________________________________________________________________________________________
conv3_block9_0_bn (BatchNormali (3, 46, 70, 384)     1536        conv3_block8_concat[0][0]
__________________________________________________________________________________________________
conv3_block9_0_relu (Activation (3, 46, 70, 384)     0           conv3_block9_0_bn[0][0]
__________________________________________________________________________________________________
conv3_block9_1_conv (Conv2D)    (3, 46, 70, 128)     49152       conv3_block9_0_relu[0][0]
__________________________________________________________________________________________________
conv3_block9_1_bn (BatchNormali (3, 46, 70, 128)     512         conv3_block9_1_conv[0][0]
__________________________________________________________________________________________________
conv3_block9_1_relu (Activation (3, 46, 70, 128)     0           conv3_block9_1_bn[0][0]
__________________________________________________________________________________________________
conv3_block9_2_conv (Conv2D)    (3, 46, 70, 32)      36864       conv3_block9_1_relu[0][0]
__________________________________________________________________________________________________
conv3_block9_concat (Concatenat (3, 46, 70, 416)     0           conv3_block8_concat[0][0]
                                                                 conv3_block9_2_conv[0][0]
__________________________________________________________________________________________________
conv3_block10_0_bn (BatchNormal (3, 46, 70, 416)     1664        conv3_block9_concat[0][0]
__________________________________________________________________________________________________
conv3_block10_0_relu (Activatio (3, 46, 70, 416)     0           conv3_block10_0_bn[0][0]
__________________________________________________________________________________________________
conv3_block10_1_conv (Conv2D)   (3, 46, 70, 128)     53248       conv3_block10_0_relu[0][0]
__________________________________________________________________________________________________
conv3_block10_1_bn (BatchNormal (3, 46, 70, 128)     512         conv3_block10_1_conv[0][0]
__________________________________________________________________________________________________
conv3_block10_1_relu (Activatio (3, 46, 70, 128)     0           conv3_block10_1_bn[0][0]
__________________________________________________________________________________________________
conv3_block10_2_conv (Conv2D)   (3, 46, 70, 32)      36864       conv3_block10_1_relu[0][0]
__________________________________________________________________________________________________
conv3_block10_concat (Concatena (3, 46, 70, 448)     0           conv3_block9_concat[0][0]
                                                                 conv3_block10_2_conv[0][0]
__________________________________________________________________________________________________
conv3_block11_0_bn (BatchNormal (3, 46, 70, 448)     1792        conv3_block10_concat[0][0]
__________________________________________________________________________________________________
conv3_block11_0_relu (Activatio (3, 46, 70, 448)     0           conv3_block11_0_bn[0][0]
__________________________________________________________________________________________________
conv3_block11_1_conv (Conv2D)   (3, 46, 70, 128)     57344       conv3_block11_0_relu[0][0]
__________________________________________________________________________________________________
conv3_block11_1_bn (BatchNormal (3, 46, 70, 128)     512         conv3_block11_1_conv[0][0]
__________________________________________________________________________________________________
conv3_block11_1_relu (Activatio (3, 46, 70, 128)     0           conv3_block11_1_bn[0][0]
__________________________________________________________________________________________________
conv3_block11_2_conv (Conv2D)   (3, 46, 70, 32)      36864       conv3_block11_1_relu[0][0]
__________________________________________________________________________________________________
conv3_block11_concat (Concatena (3, 46, 70, 480)     0           conv3_block10_concat[0][0]
                                                                 conv3_block11_2_conv[0][0]
__________________________________________________________________________________________________
conv3_block12_0_bn (BatchNormal (3, 46, 70, 480)     1920        conv3_block11_concat[0][0]
__________________________________________________________________________________________________
conv3_block12_0_relu (Activatio (3, 46, 70, 480)     0           conv3_block12_0_bn[0][0]
__________________________________________________________________________________________________
conv3_block12_1_conv (Conv2D)   (3, 46, 70, 128)     61440       conv3_block12_0_relu[0][0]
__________________________________________________________________________________________________
conv3_block12_1_bn (BatchNormal (3, 46, 70, 128)     512         conv3_block12_1_conv[0][0]
__________________________________________________________________________________________________
conv3_block12_1_relu (Activatio (3, 46, 70, 128)     0           conv3_block12_1_bn[0][0]
__________________________________________________________________________________________________
conv3_block12_2_conv (Conv2D)   (3, 46, 70, 32)      36864       conv3_block12_1_relu[0][0]
__________________________________________________________________________________________________
conv3_block12_concat (Concatena (3, 46, 70, 512)     0           conv3_block11_concat[0][0]
                                                                 conv3_block12_2_conv[0][0]
__________________________________________________________________________________________________
pool3_bn (BatchNormalization)   (3, 46, 70, 512)     2048        conv3_block12_concat[0][0]
__________________________________________________________________________________________________
pool3_relu (Activation)         (3, 46, 70, 512)     0           pool3_bn[0][0]
__________________________________________________________________________________________________
pool3_conv (Conv2D)             (3, 46, 70, 256)     131072      pool3_relu[0][0]
__________________________________________________________________________________________________
pool3_pool (AveragePooling2D)   (3, 23, 35, 256)     0           pool3_conv[0][0]
__________________________________________________________________________________________________
conv4_block1_0_bn (BatchNormali (3, 23, 35, 256)     1024        pool3_pool[0][0]
__________________________________________________________________________________________________
conv4_block1_0_relu (Activation (3, 23, 35, 256)     0           conv4_block1_0_bn[0][0]
__________________________________________________________________________________________________
conv4_block1_1_conv (Conv2D)    (3, 23, 35, 128)     32768       conv4_block1_0_relu[0][0]
__________________________________________________________________________________________________
conv4_block1_1_bn (BatchNormali (3, 23, 35, 128)     512         conv4_block1_1_conv[0][0]
__________________________________________________________________________________________________
conv4_block1_1_relu (Activation (3, 23, 35, 128)     0           conv4_block1_1_bn[0][0]
__________________________________________________________________________________________________
conv4_block1_2_conv (Conv2D)    (3, 23, 35, 32)      36864       conv4_block1_1_relu[0][0]
__________________________________________________________________________________________________
conv4_block1_concat (Concatenat (3, 23, 35, 288)     0           pool3_pool[0][0]
                                                                 conv4_block1_2_conv[0][0]
__________________________________________________________________________________________________
conv4_block2_0_bn (BatchNormali (3, 23, 35, 288)     1152        conv4_block1_concat[0][0]
__________________________________________________________________________________________________
conv4_block2_0_relu (Activation (3, 23, 35, 288)     0           conv4_block2_0_bn[0][0]
__________________________________________________________________________________________________
conv4_block2_1_conv (Conv2D)    (3, 23, 35, 128)     36864       conv4_block2_0_relu[0][0]
__________________________________________________________________________________________________
conv4_block2_1_bn (BatchNormali (3, 23, 35, 128)     512         conv4_block2_1_conv[0][0]
__________________________________________________________________________________________________
conv4_block2_1_relu (Activation (3, 23, 35, 128)     0           conv4_block2_1_bn[0][0]
__________________________________________________________________________________________________
conv4_block2_2_conv (Conv2D)    (3, 23, 35, 32)      36864       conv4_block2_1_relu[0][0]
__________________________________________________________________________________________________
conv4_block2_concat (Concatenat (3, 23, 35, 320)     0           conv4_block1_concat[0][0]
                                                                 conv4_block2_2_conv[0][0]
__________________________________________________________________________________________________
conv4_block3_0_bn (BatchNormali (3, 23, 35, 320)     1280        conv4_block2_concat[0][0]
__________________________________________________________________________________________________
conv4_block3_0_relu (Activation (3, 23, 35, 320)     0           conv4_block3_0_bn[0][0]
__________________________________________________________________________________________________
conv4_block3_1_conv (Conv2D)    (3, 23, 35, 128)     40960       conv4_block3_0_relu[0][0]
__________________________________________________________________________________________________
conv4_block3_1_bn (BatchNormali (3, 23, 35, 128)     512         conv4_block3_1_conv[0][0]
__________________________________________________________________________________________________
conv4_block3_1_relu (Activation (3, 23, 35, 128)     0           conv4_block3_1_bn[0][0]
__________________________________________________________________________________________________
conv4_block3_2_conv (Conv2D)    (3, 23, 35, 32)      36864       conv4_block3_1_relu[0][0]
__________________________________________________________________________________________________
conv4_block3_concat (Concatenat (3, 23, 35, 352)     0           conv4_block2_concat[0][0]
                                                                 conv4_block3_2_conv[0][0]
__________________________________________________________________________________________________
conv4_block4_0_bn (BatchNormali (3, 23, 35, 352)     1408        conv4_block3_concat[0][0]
__________________________________________________________________________________________________
conv4_block4_0_relu (Activation (3, 23, 35, 352)     0           conv4_block4_0_bn[0][0]
__________________________________________________________________________________________________
conv4_block4_1_conv (Conv2D)    (3, 23, 35, 128)     45056       conv4_block4_0_relu[0][0]
__________________________________________________________________________________________________
conv4_block4_1_bn (BatchNormali (3, 23, 35, 128)     512         conv4_block4_1_conv[0][0]
__________________________________________________________________________________________________
conv4_block4_1_relu (Activation (3, 23, 35, 128)     0           conv4_block4_1_bn[0][0]
__________________________________________________________________________________________________
conv4_block4_2_conv (Conv2D)    (3, 23, 35, 32)      36864       conv4_block4_1_relu[0][0]
__________________________________________________________________________________________________
conv4_block4_concat (Concatenat (3, 23, 35, 384)     0           conv4_block3_concat[0][0]
                                                                 conv4_block4_2_conv[0][0]
__________________________________________________________________________________________________
conv4_block5_0_bn (BatchNormali (3, 23, 35, 384)     1536        conv4_block4_concat[0][0]
__________________________________________________________________________________________________
conv4_block5_0_relu (Activation (3, 23, 35, 384)     0           conv4_block5_0_bn[0][0]
__________________________________________________________________________________________________
conv4_block5_1_conv (Conv2D)    (3, 23, 35, 128)     49152       conv4_block5_0_relu[0][0]
__________________________________________________________________________________________________
conv4_block5_1_bn (BatchNormali (3, 23, 35, 128)     512         conv4_block5_1_conv[0][0]
__________________________________________________________________________________________________
conv4_block5_1_relu (Activation (3, 23, 35, 128)     0           conv4_block5_1_bn[0][0]
__________________________________________________________________________________________________
conv4_block5_2_conv (Conv2D)    (3, 23, 35, 32)      36864       conv4_block5_1_relu[0][0]
__________________________________________________________________________________________________
conv4_block5_concat (Concatenat (3, 23, 35, 416)     0           conv4_block4_concat[0][0]
                                                                 conv4_block5_2_conv[0][0]
__________________________________________________________________________________________________
conv4_block6_0_bn (BatchNormali (3, 23, 35, 416)     1664        conv4_block5_concat[0][0]
__________________________________________________________________________________________________
conv4_block6_0_relu (Activation (3, 23, 35, 416)     0           conv4_block6_0_bn[0][0]
__________________________________________________________________________________________________
conv4_block6_1_conv (Conv2D)    (3, 23, 35, 128)     53248       conv4_block6_0_relu[0][0]
__________________________________________________________________________________________________
conv4_block6_1_bn (BatchNormali (3, 23, 35, 128)     512         conv4_block6_1_conv[0][0]
__________________________________________________________________________________________________
conv4_block6_1_relu (Activation (3, 23, 35, 128)     0           conv4_block6_1_bn[0][0]
__________________________________________________________________________________________________
conv4_block6_2_conv (Conv2D)    (3, 23, 35, 32)      36864       conv4_block6_1_relu[0][0]
__________________________________________________________________________________________________
conv4_block6_concat (Concatenat (3, 23, 35, 448)     0           conv4_block5_concat[0][0]
                                                                 conv4_block6_2_conv[0][0]
__________________________________________________________________________________________________
conv4_block7_0_bn (BatchNormali (3, 23, 35, 448)     1792        conv4_block6_concat[0][0]
__________________________________________________________________________________________________
conv4_block7_0_relu (Activation (3, 23, 35, 448)     0           conv4_block7_0_bn[0][0]
__________________________________________________________________________________________________
conv4_block7_1_conv (Conv2D)    (3, 23, 35, 128)     57344       conv4_block7_0_relu[0][0]
__________________________________________________________________________________________________
conv4_block7_1_bn (BatchNormali (3, 23, 35, 128)     512         conv4_block7_1_conv[0][0]
__________________________________________________________________________________________________
conv4_block7_1_relu (Activation (3, 23, 35, 128)     0           conv4_block7_1_bn[0][0]
__________________________________________________________________________________________________
conv4_block7_2_conv (Conv2D)    (3, 23, 35, 32)      36864       conv4_block7_1_relu[0][0]
__________________________________________________________________________________________________
conv4_block7_concat (Concatenat (3, 23, 35, 480)     0           conv4_block6_concat[0][0]
                                                                 conv4_block7_2_conv[0][0]
__________________________________________________________________________________________________
conv4_block8_0_bn (BatchNormali (3, 23, 35, 480)     1920        conv4_block7_concat[0][0]
__________________________________________________________________________________________________
conv4_block8_0_relu (Activation (3, 23, 35, 480)     0           conv4_block8_0_bn[0][0]
__________________________________________________________________________________________________
conv4_block8_1_conv (Conv2D)    (3, 23, 35, 128)     61440       conv4_block8_0_relu[0][0]
__________________________________________________________________________________________________
conv4_block8_1_bn (BatchNormali (3, 23, 35, 128)     512         conv4_block8_1_conv[0][0]
__________________________________________________________________________________________________
conv4_block8_1_relu (Activation (3, 23, 35, 128)     0           conv4_block8_1_bn[0][0]
__________________________________________________________________________________________________
conv4_block8_2_conv (Conv2D)    (3, 23, 35, 32)      36864       conv4_block8_1_relu[0][0]
__________________________________________________________________________________________________
conv4_block8_concat (Concatenat (3, 23, 35, 512)     0           conv4_block7_concat[0][0]
                                                                 conv4_block8_2_conv[0][0]
__________________________________________________________________________________________________
conv4_block9_0_bn (BatchNormali (3, 23, 35, 512)     2048        conv4_block8_concat[0][0]
__________________________________________________________________________________________________
conv4_block9_0_relu (Activation (3, 23, 35, 512)     0           conv4_block9_0_bn[0][0]
__________________________________________________________________________________________________
conv4_block9_1_conv (Conv2D)    (3, 23, 35, 128)     65536       conv4_block9_0_relu[0][0]
__________________________________________________________________________________________________
conv4_block9_1_bn (BatchNormali (3, 23, 35, 128)     512         conv4_block9_1_conv[0][0]
__________________________________________________________________________________________________
conv4_block9_1_relu (Activation (3, 23, 35, 128)     0           conv4_block9_1_bn[0][0]
__________________________________________________________________________________________________
conv4_block9_2_conv (Conv2D)    (3, 23, 35, 32)      36864       conv4_block9_1_relu[0][0]
__________________________________________________________________________________________________
conv4_block9_concat (Concatenat (3, 23, 35, 544)     0           conv4_block8_concat[0][0]
                                                                 conv4_block9_2_conv[0][0]
__________________________________________________________________________________________________
conv4_block10_0_bn (BatchNormal (3, 23, 35, 544)     2176        conv4_block9_concat[0][0]
__________________________________________________________________________________________________
conv4_block10_0_relu (Activatio (3, 23, 35, 544)     0           conv4_block10_0_bn[0][0]
__________________________________________________________________________________________________
conv4_block10_1_conv (Conv2D)   (3, 23, 35, 128)     69632       conv4_block10_0_relu[0][0]
__________________________________________________________________________________________________
conv4_block10_1_bn (BatchNormal (3, 23, 35, 128)     512         conv4_block10_1_conv[0][0]
__________________________________________________________________________________________________
conv4_block10_1_relu (Activatio (3, 23, 35, 128)     0           conv4_block10_1_bn[0][0]
__________________________________________________________________________________________________
conv4_block10_2_conv (Conv2D)   (3, 23, 35, 32)      36864       conv4_block10_1_relu[0][0]
__________________________________________________________________________________________________
conv4_block10_concat (Concatena (3, 23, 35, 576)     0           conv4_block9_concat[0][0]
                                                                 conv4_block10_2_conv[0][0]
__________________________________________________________________________________________________
conv4_block11_0_bn (BatchNormal (3, 23, 35, 576)     2304        conv4_block10_concat[0][0]
__________________________________________________________________________________________________
conv4_block11_0_relu (Activatio (3, 23, 35, 576)     0           conv4_block11_0_bn[0][0]
__________________________________________________________________________________________________
conv4_block11_1_conv (Conv2D)   (3, 23, 35, 128)     73728       conv4_block11_0_relu[0][0]
__________________________________________________________________________________________________
conv4_block11_1_bn (BatchNormal (3, 23, 35, 128)     512         conv4_block11_1_conv[0][0]
__________________________________________________________________________________________________
conv4_block11_1_relu (Activatio (3, 23, 35, 128)     0           conv4_block11_1_bn[0][0]
__________________________________________________________________________________________________
conv4_block11_2_conv (Conv2D)   (3, 23, 35, 32)      36864       conv4_block11_1_relu[0][0]
__________________________________________________________________________________________________
conv4_block11_concat (Concatena (3, 23, 35, 608)     0           conv4_block10_concat[0][0]
                                                                 conv4_block11_2_conv[0][0]
__________________________________________________________________________________________________
conv4_block12_0_bn (BatchNormal (3, 23, 35, 608)     2432        conv4_block11_concat[0][0]
__________________________________________________________________________________________________
conv4_block12_0_relu (Activatio (3, 23, 35, 608)     0           conv4_block12_0_bn[0][0]
__________________________________________________________________________________________________
conv4_block12_1_conv (Conv2D)   (3, 23, 35, 128)     77824       conv4_block12_0_relu[0][0]
__________________________________________________________________________________________________
conv4_block12_1_bn (BatchNormal (3, 23, 35, 128)     512         conv4_block12_1_conv[0][0]
__________________________________________________________________________________________________
conv4_block12_1_relu (Activatio (3, 23, 35, 128)     0           conv4_block12_1_bn[0][0]
__________________________________________________________________________________________________
conv4_block12_2_conv (Conv2D)   (3, 23, 35, 32)      36864       conv4_block12_1_relu[0][0]
__________________________________________________________________________________________________
conv4_block12_concat (Concatena (3, 23, 35, 640)     0           conv4_block11_concat[0][0]
                                                                 conv4_block12_2_conv[0][0]
__________________________________________________________________________________________________
conv4_block13_0_bn (BatchNormal (3, 23, 35, 640)     2560        conv4_block12_concat[0][0]
__________________________________________________________________________________________________
conv4_block13_0_relu (Activatio (3, 23, 35, 640)     0           conv4_block13_0_bn[0][0]
__________________________________________________________________________________________________
conv4_block13_1_conv (Conv2D)   (3, 23, 35, 128)     81920       conv4_block13_0_relu[0][0]
__________________________________________________________________________________________________
conv4_block13_1_bn (BatchNormal (3, 23, 35, 128)     512         conv4_block13_1_conv[0][0]
__________________________________________________________________________________________________
conv4_block13_1_relu (Activatio (3, 23, 35, 128)     0           conv4_block13_1_bn[0][0]
__________________________________________________________________________________________________
conv4_block13_2_conv (Conv2D)   (3, 23, 35, 32)      36864       conv4_block13_1_relu[0][0]
__________________________________________________________________________________________________
conv4_block13_concat (Concatena (3, 23, 35, 672)     0           conv4_block12_concat[0][0]
                                                                 conv4_block13_2_conv[0][0]
__________________________________________________________________________________________________
conv4_block14_0_bn (BatchNormal (3, 23, 35, 672)     2688        conv4_block13_concat[0][0]
__________________________________________________________________________________________________
conv4_block14_0_relu (Activatio (3, 23, 35, 672)     0           conv4_block14_0_bn[0][0]
__________________________________________________________________________________________________
conv4_block14_1_conv (Conv2D)   (3, 23, 35, 128)     86016       conv4_block14_0_relu[0][0]
__________________________________________________________________________________________________
conv4_block14_1_bn (BatchNormal (3, 23, 35, 128)     512         conv4_block14_1_conv[0][0]
__________________________________________________________________________________________________
conv4_block14_1_relu (Activatio (3, 23, 35, 128)     0           conv4_block14_1_bn[0][0]
__________________________________________________________________________________________________
conv4_block14_2_conv (Conv2D)   (3, 23, 35, 32)      36864       conv4_block14_1_relu[0][0]
__________________________________________________________________________________________________
conv4_block14_concat (Concatena (3, 23, 35, 704)     0           conv4_block13_concat[0][0]
                                                                 conv4_block14_2_conv[0][0]
__________________________________________________________________________________________________
conv4_block15_0_bn (BatchNormal (3, 23, 35, 704)     2816        conv4_block14_concat[0][0]
__________________________________________________________________________________________________
conv4_block15_0_relu (Activatio (3, 23, 35, 704)     0           conv4_block15_0_bn[0][0]
__________________________________________________________________________________________________
conv4_block15_1_conv (Conv2D)   (3, 23, 35, 128)     90112       conv4_block15_0_relu[0][0]
__________________________________________________________________________________________________
conv4_block15_1_bn (BatchNormal (3, 23, 35, 128)     512         conv4_block15_1_conv[0][0]
__________________________________________________________________________________________________
conv4_block15_1_relu (Activatio (3, 23, 35, 128)     0           conv4_block15_1_bn[0][0]
__________________________________________________________________________________________________
conv4_block15_2_conv (Conv2D)   (3, 23, 35, 32)      36864       conv4_block15_1_relu[0][0]
__________________________________________________________________________________________________
conv4_block15_concat (Concatena (3, 23, 35, 736)     0           conv4_block14_concat[0][0]
                                                                 conv4_block15_2_conv[0][0]
__________________________________________________________________________________________________
conv4_block16_0_bn (BatchNormal (3, 23, 35, 736)     2944        conv4_block15_concat[0][0]
__________________________________________________________________________________________________
conv4_block16_0_relu (Activatio (3, 23, 35, 736)     0           conv4_block16_0_bn[0][0]
__________________________________________________________________________________________________
conv4_block16_1_conv (Conv2D)   (3, 23, 35, 128)     94208       conv4_block16_0_relu[0][0]
__________________________________________________________________________________________________
conv4_block16_1_bn (BatchNormal (3, 23, 35, 128)     512         conv4_block16_1_conv[0][0]
__________________________________________________________________________________________________
conv4_block16_1_relu (Activatio (3, 23, 35, 128)     0           conv4_block16_1_bn[0][0]
__________________________________________________________________________________________________
conv4_block16_2_conv (Conv2D)   (3, 23, 35, 32)      36864       conv4_block16_1_relu[0][0]
__________________________________________________________________________________________________
conv4_block16_concat (Concatena (3, 23, 35, 768)     0           conv4_block15_concat[0][0]
                                                                 conv4_block16_2_conv[0][0]
__________________________________________________________________________________________________
conv4_block17_0_bn (BatchNormal (3, 23, 35, 768)     3072        conv4_block16_concat[0][0]
__________________________________________________________________________________________________
conv4_block17_0_relu (Activatio (3, 23, 35, 768)     0           conv4_block17_0_bn[0][0]
__________________________________________________________________________________________________
conv4_block17_1_conv (Conv2D)   (3, 23, 35, 128)     98304       conv4_block17_0_relu[0][0]
__________________________________________________________________________________________________
conv4_block17_1_bn (BatchNormal (3, 23, 35, 128)     512         conv4_block17_1_conv[0][0]
__________________________________________________________________________________________________
conv4_block17_1_relu (Activatio (3, 23, 35, 128)     0           conv4_block17_1_bn[0][0]
__________________________________________________________________________________________________
conv4_block17_2_conv (Conv2D)   (3, 23, 35, 32)      36864       conv4_block17_1_relu[0][0]
__________________________________________________________________________________________________
conv4_block17_concat (Concatena (3, 23, 35, 800)     0           conv4_block16_concat[0][0]
                                                                 conv4_block17_2_conv[0][0]
__________________________________________________________________________________________________
conv4_block18_0_bn (BatchNormal (3, 23, 35, 800)     3200        conv4_block17_concat[0][0]
__________________________________________________________________________________________________
conv4_block18_0_relu (Activatio (3, 23, 35, 800)     0           conv4_block18_0_bn[0][0]
__________________________________________________________________________________________________
conv4_block18_1_conv (Conv2D)   (3, 23, 35, 128)     102400      conv4_block18_0_relu[0][0]
__________________________________________________________________________________________________
conv4_block18_1_bn (BatchNormal (3, 23, 35, 128)     512         conv4_block18_1_conv[0][0]
__________________________________________________________________________________________________
conv4_block18_1_relu (Activatio (3, 23, 35, 128)     0           conv4_block18_1_bn[0][0]
__________________________________________________________________________________________________
conv4_block18_2_conv (Conv2D)   (3, 23, 35, 32)      36864       conv4_block18_1_relu[0][0]
__________________________________________________________________________________________________
conv4_block18_concat (Concatena (3, 23, 35, 832)     0           conv4_block17_concat[0][0]
                                                                 conv4_block18_2_conv[0][0]
__________________________________________________________________________________________________
conv4_block19_0_bn (BatchNormal (3, 23, 35, 832)     3328        conv4_block18_concat[0][0]
__________________________________________________________________________________________________
conv4_block19_0_relu (Activatio (3, 23, 35, 832)     0           conv4_block19_0_bn[0][0]
__________________________________________________________________________________________________
conv4_block19_1_conv (Conv2D)   (3, 23, 35, 128)     106496      conv4_block19_0_relu[0][0]
__________________________________________________________________________________________________
conv4_block19_1_bn (BatchNormal (3, 23, 35, 128)     512         conv4_block19_1_conv[0][0]
__________________________________________________________________________________________________
conv4_block19_1_relu (Activatio (3, 23, 35, 128)     0           conv4_block19_1_bn[0][0]
__________________________________________________________________________________________________
conv4_block19_2_conv (Conv2D)   (3, 23, 35, 32)      36864       conv4_block19_1_relu[0][0]
__________________________________________________________________________________________________
conv4_block19_concat (Concatena (3, 23, 35, 864)     0           conv4_block18_concat[0][0]
                                                                 conv4_block19_2_conv[0][0]
__________________________________________________________________________________________________
conv4_block20_0_bn (BatchNormal (3, 23, 35, 864)     3456        conv4_block19_concat[0][0]
__________________________________________________________________________________________________
conv4_block20_0_relu (Activatio (3, 23, 35, 864)     0           conv4_block20_0_bn[0][0]
__________________________________________________________________________________________________
conv4_block20_1_conv (Conv2D)   (3, 23, 35, 128)     110592      conv4_block20_0_relu[0][0]
__________________________________________________________________________________________________
conv4_block20_1_bn (BatchNormal (3, 23, 35, 128)     512         conv4_block20_1_conv[0][0]
__________________________________________________________________________________________________
conv4_block20_1_relu (Activatio (3, 23, 35, 128)     0           conv4_block20_1_bn[0][0]
__________________________________________________________________________________________________
conv4_block20_2_conv (Conv2D)   (3, 23, 35, 32)      36864       conv4_block20_1_relu[0][0]
__________________________________________________________________________________________________
conv4_block20_concat (Concatena (3, 23, 35, 896)     0           conv4_block19_concat[0][0]
                                                                 conv4_block20_2_conv[0][0]
__________________________________________________________________________________________________
conv4_block21_0_bn (BatchNormal (3, 23, 35, 896)     3584        conv4_block20_concat[0][0]
__________________________________________________________________________________________________
conv4_block21_0_relu (Activatio (3, 23, 35, 896)     0           conv4_block21_0_bn[0][0]
__________________________________________________________________________________________________
conv4_block21_1_conv (Conv2D)   (3, 23, 35, 128)     114688      conv4_block21_0_relu[0][0]
__________________________________________________________________________________________________
conv4_block21_1_bn (BatchNormal (3, 23, 35, 128)     512         conv4_block21_1_conv[0][0]
__________________________________________________________________________________________________
conv4_block21_1_relu (Activatio (3, 23, 35, 128)     0           conv4_block21_1_bn[0][0]
__________________________________________________________________________________________________
conv4_block21_2_conv (Conv2D)   (3, 23, 35, 32)      36864       conv4_block21_1_relu[0][0]
__________________________________________________________________________________________________
conv4_block21_concat (Concatena (3, 23, 35, 928)     0           conv4_block20_concat[0][0]
                                                                 conv4_block21_2_conv[0][0]
__________________________________________________________________________________________________
conv4_block22_0_bn (BatchNormal (3, 23, 35, 928)     3712        conv4_block21_concat[0][0]
__________________________________________________________________________________________________
conv4_block22_0_relu (Activatio (3, 23, 35, 928)     0           conv4_block22_0_bn[0][0]
__________________________________________________________________________________________________
conv4_block22_1_conv (Conv2D)   (3, 23, 35, 128)     118784      conv4_block22_0_relu[0][0]
__________________________________________________________________________________________________
conv4_block22_1_bn (BatchNormal (3, 23, 35, 128)     512         conv4_block22_1_conv[0][0]
__________________________________________________________________________________________________
conv4_block22_1_relu (Activatio (3, 23, 35, 128)     0           conv4_block22_1_bn[0][0]
__________________________________________________________________________________________________
conv4_block22_2_conv (Conv2D)   (3, 23, 35, 32)      36864       conv4_block22_1_relu[0][0]
__________________________________________________________________________________________________
conv4_block22_concat (Concatena (3, 23, 35, 960)     0           conv4_block21_concat[0][0]
                                                                 conv4_block22_2_conv[0][0]
__________________________________________________________________________________________________
conv4_block23_0_bn (BatchNormal (3, 23, 35, 960)     3840        conv4_block22_concat[0][0]
__________________________________________________________________________________________________
conv4_block23_0_relu (Activatio (3, 23, 35, 960)     0           conv4_block23_0_bn[0][0]
__________________________________________________________________________________________________
conv4_block23_1_conv (Conv2D)   (3, 23, 35, 128)     122880      conv4_block23_0_relu[0][0]
__________________________________________________________________________________________________
conv4_block23_1_bn (BatchNormal (3, 23, 35, 128)     512         conv4_block23_1_conv[0][0]
__________________________________________________________________________________________________
conv4_block23_1_relu (Activatio (3, 23, 35, 128)     0           conv4_block23_1_bn[0][0]
__________________________________________________________________________________________________
conv4_block23_2_conv (Conv2D)   (3, 23, 35, 32)      36864       conv4_block23_1_relu[0][0]
__________________________________________________________________________________________________
conv4_block23_concat (Concatena (3, 23, 35, 992)     0           conv4_block22_concat[0][0]
                                                                 conv4_block23_2_conv[0][0]
__________________________________________________________________________________________________
conv4_block24_0_bn (BatchNormal (3, 23, 35, 992)     3968        conv4_block23_concat[0][0]
__________________________________________________________________________________________________
conv4_block24_0_relu (Activatio (3, 23, 35, 992)     0           conv4_block24_0_bn[0][0]
__________________________________________________________________________________________________
conv4_block24_1_conv (Conv2D)   (3, 23, 35, 128)     126976      conv4_block24_0_relu[0][0]
__________________________________________________________________________________________________
conv4_block24_1_bn (BatchNormal (3, 23, 35, 128)     512         conv4_block24_1_conv[0][0]
__________________________________________________________________________________________________
conv4_block24_1_relu (Activatio (3, 23, 35, 128)     0           conv4_block24_1_bn[0][0]
__________________________________________________________________________________________________
conv4_block24_2_conv (Conv2D)   (3, 23, 35, 32)      36864       conv4_block24_1_relu[0][0]
__________________________________________________________________________________________________
conv4_block24_concat (Concatena (3, 23, 35, 1024)    0           conv4_block23_concat[0][0]
                                                                 conv4_block24_2_conv[0][0]
__________________________________________________________________________________________________
pool4_bn (BatchNormalization)   (3, 23, 35, 1024)    4096        conv4_block24_concat[0][0]
__________________________________________________________________________________________________
pool4_relu (Activation)         (3, 23, 35, 1024)    0           pool4_bn[0][0]
__________________________________________________________________________________________________
pool4_conv (Conv2D)             (3, 23, 35, 512)     524288      pool4_relu[0][0]
__________________________________________________________________________________________________
pool4_pool (AveragePooling2D)   (3, 11, 17, 512)     0           pool4_conv[0][0]
__________________________________________________________________________________________________
conv5_block1_0_bn (BatchNormali (3, 11, 17, 512)     2048        pool4_pool[0][0]
__________________________________________________________________________________________________
conv5_block1_0_relu (Activation (3, 11, 17, 512)     0           conv5_block1_0_bn[0][0]
__________________________________________________________________________________________________
conv5_block1_1_conv (Conv2D)    (3, 11, 17, 128)     65536       conv5_block1_0_relu[0][0]
__________________________________________________________________________________________________
conv5_block1_1_bn (BatchNormali (3, 11, 17, 128)     512         conv5_block1_1_conv[0][0]
__________________________________________________________________________________________________
conv5_block1_1_relu (Activation (3, 11, 17, 128)     0           conv5_block1_1_bn[0][0]
__________________________________________________________________________________________________
conv5_block1_2_conv (Conv2D)    (3, 11, 17, 32)      36864       conv5_block1_1_relu[0][0]
__________________________________________________________________________________________________
conv5_block1_concat (Concatenat (3, 11, 17, 544)     0           pool4_pool[0][0]
                                                                 conv5_block1_2_conv[0][0]
__________________________________________________________________________________________________
conv5_block2_0_bn (BatchNormali (3, 11, 17, 544)     2176        conv5_block1_concat[0][0]
__________________________________________________________________________________________________
conv5_block2_0_relu (Activation (3, 11, 17, 544)     0           conv5_block2_0_bn[0][0]
__________________________________________________________________________________________________
conv5_block2_1_conv (Conv2D)    (3, 11, 17, 128)     69632       conv5_block2_0_relu[0][0]
__________________________________________________________________________________________________
conv5_block2_1_bn (BatchNormali (3, 11, 17, 128)     512         conv5_block2_1_conv[0][0]
__________________________________________________________________________________________________
conv5_block2_1_relu (Activation (3, 11, 17, 128)     0           conv5_block2_1_bn[0][0]
__________________________________________________________________________________________________
conv5_block2_2_conv (Conv2D)    (3, 11, 17, 32)      36864       conv5_block2_1_relu[0][0]
__________________________________________________________________________________________________
conv5_block2_concat (Concatenat (3, 11, 17, 576)     0           conv5_block1_concat[0][0]
                                                                 conv5_block2_2_conv[0][0]
__________________________________________________________________________________________________
conv5_block3_0_bn (BatchNormali (3, 11, 17, 576)     2304        conv5_block2_concat[0][0]
__________________________________________________________________________________________________
conv5_block3_0_relu (Activation (3, 11, 17, 576)     0           conv5_block3_0_bn[0][0]
__________________________________________________________________________________________________
conv5_block3_1_conv (Conv2D)    (3, 11, 17, 128)     73728       conv5_block3_0_relu[0][0]
__________________________________________________________________________________________________
conv5_block3_1_bn (BatchNormali (3, 11, 17, 128)     512         conv5_block3_1_conv[0][0]
__________________________________________________________________________________________________
conv5_block3_1_relu (Activation (3, 11, 17, 128)     0           conv5_block3_1_bn[0][0]
__________________________________________________________________________________________________
conv5_block3_2_conv (Conv2D)    (3, 11, 17, 32)      36864       conv5_block3_1_relu[0][0]
__________________________________________________________________________________________________
conv5_block3_concat (Concatenat (3, 11, 17, 608)     0           conv5_block2_concat[0][0]
                                                                 conv5_block3_2_conv[0][0]
__________________________________________________________________________________________________
conv5_block4_0_bn (BatchNormali (3, 11, 17, 608)     2432        conv5_block3_concat[0][0]
__________________________________________________________________________________________________
conv5_block4_0_relu (Activation (3, 11, 17, 608)     0           conv5_block4_0_bn[0][0]
__________________________________________________________________________________________________
conv5_block4_1_conv (Conv2D)    (3, 11, 17, 128)     77824       conv5_block4_0_relu[0][0]
__________________________________________________________________________________________________
conv5_block4_1_bn (BatchNormali (3, 11, 17, 128)     512         conv5_block4_1_conv[0][0]
__________________________________________________________________________________________________
conv5_block4_1_relu (Activation (3, 11, 17, 128)     0           conv5_block4_1_bn[0][0]
__________________________________________________________________________________________________
conv5_block4_2_conv (Conv2D)    (3, 11, 17, 32)      36864       conv5_block4_1_relu[0][0]
__________________________________________________________________________________________________
conv5_block4_concat (Concatenat (3, 11, 17, 640)     0           conv5_block3_concat[0][0]
                                                                 conv5_block4_2_conv[0][0]
__________________________________________________________________________________________________
conv5_block5_0_bn (BatchNormali (3, 11, 17, 640)     2560        conv5_block4_concat[0][0]
__________________________________________________________________________________________________
conv5_block5_0_relu (Activation (3, 11, 17, 640)     0           conv5_block5_0_bn[0][0]
__________________________________________________________________________________________________
conv5_block5_1_conv (Conv2D)    (3, 11, 17, 128)     81920       conv5_block5_0_relu[0][0]
__________________________________________________________________________________________________
conv5_block5_1_bn (BatchNormali (3, 11, 17, 128)     512         conv5_block5_1_conv[0][0]
__________________________________________________________________________________________________
conv5_block5_1_relu (Activation (3, 11, 17, 128)     0           conv5_block5_1_bn[0][0]
__________________________________________________________________________________________________
conv5_block5_2_conv (Conv2D)    (3, 11, 17, 32)      36864       conv5_block5_1_relu[0][0]
__________________________________________________________________________________________________
conv5_block5_concat (Concatenat (3, 11, 17, 672)     0           conv5_block4_concat[0][0]
                                                                 conv5_block5_2_conv[0][0]
__________________________________________________________________________________________________
conv5_block6_0_bn (BatchNormali (3, 11, 17, 672)     2688        conv5_block5_concat[0][0]
__________________________________________________________________________________________________
conv5_block6_0_relu (Activation (3, 11, 17, 672)     0           conv5_block6_0_bn[0][0]
__________________________________________________________________________________________________
conv5_block6_1_conv (Conv2D)    (3, 11, 17, 128)     86016       conv5_block6_0_relu[0][0]
__________________________________________________________________________________________________
conv5_block6_1_bn (BatchNormali (3, 11, 17, 128)     512         conv5_block6_1_conv[0][0]
__________________________________________________________________________________________________
conv5_block6_1_relu (Activation (3, 11, 17, 128)     0           conv5_block6_1_bn[0][0]
__________________________________________________________________________________________________
conv5_block6_2_conv (Conv2D)    (3, 11, 17, 32)      36864       conv5_block6_1_relu[0][0]
__________________________________________________________________________________________________
conv5_block6_concat (Concatenat (3, 11, 17, 704)     0           conv5_block5_concat[0][0]
                                                                 conv5_block6_2_conv[0][0]
__________________________________________________________________________________________________
conv5_block7_0_bn (BatchNormali (3, 11, 17, 704)     2816        conv5_block6_concat[0][0]
__________________________________________________________________________________________________
conv5_block7_0_relu (Activation (3, 11, 17, 704)     0           conv5_block7_0_bn[0][0]
__________________________________________________________________________________________________
conv5_block7_1_conv (Conv2D)    (3, 11, 17, 128)     90112       conv5_block7_0_relu[0][0]
__________________________________________________________________________________________________
conv5_block7_1_bn (BatchNormali (3, 11, 17, 128)     512         conv5_block7_1_conv[0][0]
__________________________________________________________________________________________________
conv5_block7_1_relu (Activation (3, 11, 17, 128)     0           conv5_block7_1_bn[0][0]
__________________________________________________________________________________________________
conv5_block7_2_conv (Conv2D)    (3, 11, 17, 32)      36864       conv5_block7_1_relu[0][0]
__________________________________________________________________________________________________
conv5_block7_concat (Concatenat (3, 11, 17, 736)     0           conv5_block6_concat[0][0]
                                                                 conv5_block7_2_conv[0][0]
__________________________________________________________________________________________________
conv5_block8_0_bn (BatchNormali (3, 11, 17, 736)     2944        conv5_block7_concat[0][0]
__________________________________________________________________________________________________
conv5_block8_0_relu (Activation (3, 11, 17, 736)     0           conv5_block8_0_bn[0][0]
__________________________________________________________________________________________________
conv5_block8_1_conv (Conv2D)    (3, 11, 17, 128)     94208       conv5_block8_0_relu[0][0]
__________________________________________________________________________________________________
conv5_block8_1_bn (BatchNormali (3, 11, 17, 128)     512         conv5_block8_1_conv[0][0]
__________________________________________________________________________________________________
conv5_block8_1_relu (Activation (3, 11, 17, 128)     0           conv5_block8_1_bn[0][0]
__________________________________________________________________________________________________
conv5_block8_2_conv (Conv2D)    (3, 11, 17, 32)      36864       conv5_block8_1_relu[0][0]
__________________________________________________________________________________________________
conv5_block8_concat (Concatenat (3, 11, 17, 768)     0           conv5_block7_concat[0][0]
                                                                 conv5_block8_2_conv[0][0]
__________________________________________________________________________________________________
conv5_block9_0_bn (BatchNormali (3, 11, 17, 768)     3072        conv5_block8_concat[0][0]
__________________________________________________________________________________________________
conv5_block9_0_relu (Activation (3, 11, 17, 768)     0           conv5_block9_0_bn[0][0]
__________________________________________________________________________________________________
conv5_block9_1_conv (Conv2D)    (3, 11, 17, 128)     98304       conv5_block9_0_relu[0][0]
__________________________________________________________________________________________________
conv5_block9_1_bn (BatchNormali (3, 11, 17, 128)     512         conv5_block9_1_conv[0][0]
__________________________________________________________________________________________________
conv5_block9_1_relu (Activation (3, 11, 17, 128)     0           conv5_block9_1_bn[0][0]
__________________________________________________________________________________________________
conv5_block9_2_conv (Conv2D)    (3, 11, 17, 32)      36864       conv5_block9_1_relu[0][0]
__________________________________________________________________________________________________
conv5_block9_concat (Concatenat (3, 11, 17, 800)     0           conv5_block8_concat[0][0]
                                                                 conv5_block9_2_conv[0][0]
__________________________________________________________________________________________________
conv5_block10_0_bn (BatchNormal (3, 11, 17, 800)     3200        conv5_block9_concat[0][0]
__________________________________________________________________________________________________
conv5_block10_0_relu (Activatio (3, 11, 17, 800)     0           conv5_block10_0_bn[0][0]
__________________________________________________________________________________________________
conv5_block10_1_conv (Conv2D)   (3, 11, 17, 128)     102400      conv5_block10_0_relu[0][0]
__________________________________________________________________________________________________
conv5_block10_1_bn (BatchNormal (3, 11, 17, 128)     512         conv5_block10_1_conv[0][0]
__________________________________________________________________________________________________
conv5_block10_1_relu (Activatio (3, 11, 17, 128)     0           conv5_block10_1_bn[0][0]
__________________________________________________________________________________________________
conv5_block10_2_conv (Conv2D)   (3, 11, 17, 32)      36864       conv5_block10_1_relu[0][0]
__________________________________________________________________________________________________
conv5_block10_concat (Concatena (3, 11, 17, 832)     0           conv5_block9_concat[0][0]
                                                                 conv5_block10_2_conv[0][0]
__________________________________________________________________________________________________
conv5_block11_0_bn (BatchNormal (3, 11, 17, 832)     3328        conv5_block10_concat[0][0]
__________________________________________________________________________________________________
conv5_block11_0_relu (Activatio (3, 11, 17, 832)     0           conv5_block11_0_bn[0][0]
__________________________________________________________________________________________________
conv5_block11_1_conv (Conv2D)   (3, 11, 17, 128)     106496      conv5_block11_0_relu[0][0]
__________________________________________________________________________________________________
conv5_block11_1_bn (BatchNormal (3, 11, 17, 128)     512         conv5_block11_1_conv[0][0]
__________________________________________________________________________________________________
conv5_block11_1_relu (Activatio (3, 11, 17, 128)     0           conv5_block11_1_bn[0][0]
__________________________________________________________________________________________________
conv5_block11_2_conv (Conv2D)   (3, 11, 17, 32)      36864       conv5_block11_1_relu[0][0]
__________________________________________________________________________________________________
conv5_block11_concat (Concatena (3, 11, 17, 864)     0           conv5_block10_concat[0][0]
                                                                 conv5_block11_2_conv[0][0]
__________________________________________________________________________________________________
conv5_block12_0_bn (BatchNormal (3, 11, 17, 864)     3456        conv5_block11_concat[0][0]
__________________________________________________________________________________________________
conv5_block12_0_relu (Activatio (3, 11, 17, 864)     0           conv5_block12_0_bn[0][0]
__________________________________________________________________________________________________
conv5_block12_1_conv (Conv2D)   (3, 11, 17, 128)     110592      conv5_block12_0_relu[0][0]
__________________________________________________________________________________________________
conv5_block12_1_bn (BatchNormal (3, 11, 17, 128)     512         conv5_block12_1_conv[0][0]
__________________________________________________________________________________________________
conv5_block12_1_relu (Activatio (3, 11, 17, 128)     0           conv5_block12_1_bn[0][0]
__________________________________________________________________________________________________
conv5_block12_2_conv (Conv2D)   (3, 11, 17, 32)      36864       conv5_block12_1_relu[0][0]
__________________________________________________________________________________________________
conv5_block12_concat (Concatena (3, 11, 17, 896)     0           conv5_block11_concat[0][0]
                                                                 conv5_block12_2_conv[0][0]
__________________________________________________________________________________________________
conv5_block13_0_bn (BatchNormal (3, 11, 17, 896)     3584        conv5_block12_concat[0][0]
__________________________________________________________________________________________________
conv5_block13_0_relu (Activatio (3, 11, 17, 896)     0           conv5_block13_0_bn[0][0]
__________________________________________________________________________________________________
conv5_block13_1_conv (Conv2D)   (3, 11, 17, 128)     114688      conv5_block13_0_relu[0][0]
__________________________________________________________________________________________________
conv5_block13_1_bn (BatchNormal (3, 11, 17, 128)     512         conv5_block13_1_conv[0][0]
__________________________________________________________________________________________________
conv5_block13_1_relu (Activatio (3, 11, 17, 128)     0           conv5_block13_1_bn[0][0]
__________________________________________________________________________________________________
conv5_block13_2_conv (Conv2D)   (3, 11, 17, 32)      36864       conv5_block13_1_relu[0][0]
__________________________________________________________________________________________________
conv5_block13_concat (Concatena (3, 11, 17, 928)     0           conv5_block12_concat[0][0]
                                                                 conv5_block13_2_conv[0][0]
__________________________________________________________________________________________________
conv5_block14_0_bn (BatchNormal (3, 11, 17, 928)     3712        conv5_block13_concat[0][0]
__________________________________________________________________________________________________
conv5_block14_0_relu (Activatio (3, 11, 17, 928)     0           conv5_block14_0_bn[0][0]
__________________________________________________________________________________________________
conv5_block14_1_conv (Conv2D)   (3, 11, 17, 128)     118784      conv5_block14_0_relu[0][0]
__________________________________________________________________________________________________
conv5_block14_1_bn (BatchNormal (3, 11, 17, 128)     512         conv5_block14_1_conv[0][0]
__________________________________________________________________________________________________
conv5_block14_1_relu (Activatio (3, 11, 17, 128)     0           conv5_block14_1_bn[0][0]
__________________________________________________________________________________________________
conv5_block14_2_conv (Conv2D)   (3, 11, 17, 32)      36864       conv5_block14_1_relu[0][0]
__________________________________________________________________________________________________
conv5_block14_concat (Concatena (3, 11, 17, 960)     0           conv5_block13_concat[0][0]
                                                                 conv5_block14_2_conv[0][0]
__________________________________________________________________________________________________
conv5_block15_0_bn (BatchNormal (3, 11, 17, 960)     3840        conv5_block14_concat[0][0]
__________________________________________________________________________________________________
conv5_block15_0_relu (Activatio (3, 11, 17, 960)     0           conv5_block15_0_bn[0][0]
__________________________________________________________________________________________________
conv5_block15_1_conv (Conv2D)   (3, 11, 17, 128)     122880      conv5_block15_0_relu[0][0]
__________________________________________________________________________________________________
conv5_block15_1_bn (BatchNormal (3, 11, 17, 128)     512         conv5_block15_1_conv[0][0]
__________________________________________________________________________________________________
conv5_block15_1_relu (Activatio (3, 11, 17, 128)     0           conv5_block15_1_bn[0][0]
__________________________________________________________________________________________________
conv5_block15_2_conv (Conv2D)   (3, 11, 17, 32)      36864       conv5_block15_1_relu[0][0]
__________________________________________________________________________________________________
conv5_block15_concat (Concatena (3, 11, 17, 992)     0           conv5_block14_concat[0][0]
                                                                 conv5_block15_2_conv[0][0]
__________________________________________________________________________________________________
conv5_block16_0_bn (BatchNormal (3, 11, 17, 992)     3968        conv5_block15_concat[0][0]
__________________________________________________________________________________________________
conv5_block16_0_relu (Activatio (3, 11, 17, 992)     0           conv5_block16_0_bn[0][0]
__________________________________________________________________________________________________
conv5_block16_1_conv (Conv2D)   (3, 11, 17, 128)     126976      conv5_block16_0_relu[0][0]
__________________________________________________________________________________________________
conv5_block16_1_bn (BatchNormal (3, 11, 17, 128)     512         conv5_block16_1_conv[0][0]
__________________________________________________________________________________________________
conv5_block16_1_relu (Activatio (3, 11, 17, 128)     0           conv5_block16_1_bn[0][0]
__________________________________________________________________________________________________
conv5_block16_2_conv (Conv2D)   (3, 11, 17, 32)      36864       conv5_block16_1_relu[0][0]
__________________________________________________________________________________________________
conv5_block16_concat (Concatena (3, 11, 17, 1024)    0           conv5_block15_concat[0][0]
                                                                 conv5_block16_2_conv[0][0]
__________________________________________________________________________________________________
bn (BatchNormalization)         (3, 11, 17, 1024)    4096        conv5_block16_concat[0][0]
__________________________________________________________________________________________________
relu (Activation)               (3, 11, 17, 1024)    0           bn[0][0]
__________________________________________________________________________________________________
avg_pool (GlobalAveragePooling2 (3, 1024)            0           relu[0][0]
__________________________________________________________________________________________________
fc1000 (Dense)                  (3, 10)              10250       avg_pool[0][0]
==================================================================================================
Total params: 7,047,754
Trainable params: 6,964,106
Non-trainable params: 83,648
__________________________________________________________________________________________________
Train for 100 steps, validate for 10 steps
2019-11-06 11:12:15.235702: I tensorflow/stream_executor/platform/default/dso_loader.cc:44] Successfully opened dynamiclibrary libcublas.so.10.0
…
2019-01-21 16:33:24.538312: I tensorflow/core/common_runtime/gpu/gpu_device.cc:1001] 0:   N 
2019-01-21 16:33:24.538695: I tensorflow/core/common_runtime/gpu/gpu_device.cc:1115] Created TensorFlow device (/job:localhost/replica:0/task:0/device:GPU:0 with 9966 MB memory) -> physical GPU (device: 0, name: GeForce RTX 2080 Ti, pci bus id: 0000:02:00.0, compute capability: 7.5)
_________________________________________________________________
Layer (type)                 Output Shape              Param #   
=================================================================
conv2d_1 (Conv2D)            (None, 128, 128, 32)      320       
_________________________________________________________________
activation_1 (Activation)    (None, 128, 128, 32)      0         
_________________________________________________________________
conv2d_2 (Conv2D)            (None, 126, 126, 32)      9248      
_________________________________________________________________
activation_2 (Activation)    (None, 126, 126, 32)      0         
_________________________________________________________________
max_pooling2d_1 (MaxPooling2 (None, 63, 63, 32)        0         
_________________________________________________________________
dropout_1 (Dropout)          (None, 63, 63, 32)        0         
_________________________________________________________________
conv2d_3 (Conv2D)            (None, 61, 61, 64)        18496     
_________________________________________________________________
activation_3 (Activation)    (None, 61, 61, 64)        0         
_________________________________________________________________
max_pooling2d_2 (MaxPooling2 (None, 30, 30, 64)        0         
_________________________________________________________________
dropout_2 (Dropout)          (None, 30, 30, 64)        0         
_________________________________________________________________
flatten_1 (Flatten)          (None, 57600)             0         
_________________________________________________________________
dense_1 (Dense)              (None, 256)               14745856  
_________________________________________________________________
activation_4 (Activation)    (None, 256)               0         
_________________________________________________________________
dropout_3 (Dropout)          (None, 256)               0         
_________________________________________________________________
dense_2 (Dense)              (None, 34)                8738      
_________________________________________________________________
activation_5 (Activation)    (None, 34)                0         
=================================================================
Total params: 14,782,658
Trainable params: 14,782,658
Non-trainable params: 0
_________________________________________________________________
2019-01-21 16:33:25.223019: I tensorflow/compiler/xla/service/service.cc:149] XLA service 0x7f6f20001130 executing computations on platform CUDA. Devices:
**2019-01-21 16:33:25.223063: I tensorflow/compiler/xla/service/service.cc:157]   StreamExecutor device (0): GeForce RTX 2080 Ti, Compute Capability 7.5
…
